{"keras_version": "2.2.3", "config": {"name": "model_1", "output_layers": [["output_layer", 0, 0]], "input_layers": [["input_1", 0, 0]], "layers": [{"inbound_nodes": [], "config": {"dtype": "float32", "batch_input_shape": [null, 224, 224, 3], "sparse": false, "name": "input_1"}, "name": "input_1", "class_name": "InputLayer"}, {"inbound_nodes": [[["input_1", 0, 0, {}]]], "config": {"data_format": "channels_last", "trainable": false, "name": "conv1_pad", "padding": [[3, 3], [3, 3]]}, "name": "conv1_pad", "class_name": "ZeroPadding2D"}, {"inbound_nodes": [[["conv1_pad", 0, 0, {}]]], "config": {"kernel_regularizer": null, "strides": [2, 2], "kernel_initializer": {"config": {"seed": null, "distribution": "normal", "scale": 2.0, "mode": "fan_in"}, "class_name": "VarianceScaling"}, "bias_regularizer": null, "padding": "valid", "activation": "linear", "use_bias": true, "dilation_rate": [1, 1], "bias_initializer": {"config": {}, "class_name": "Zeros"}, "activity_regularizer": null, "name": "conv1", "kernel_size": [7, 7], "data_format": "channels_last", "trainable": false, "kernel_constraint": null, "bias_constraint": null, "filters": 64}, "name": "conv1", "class_name": "Conv2D"}, {"inbound_nodes": [[["conv1", 0, 0, {}]]], "config": {"center": true, "beta_regularizer": null, "momentum": 0.99, "gamma_regularizer": null, "gamma_constraint": null, "moving_variance_initializer": {"config": {}, "class_name": "Ones"}, "beta_constraint": null, "axis": 3, "beta_initializer": {"config": {}, "class_name": "Zeros"}, "name": "bn_conv1", "moving_mean_initializer": {"config": {}, "class_name": "Zeros"}, "epsilon": 0.001, "trainable": false, "gamma_initializer": {"config": {}, "class_name": "Ones"}, "scale": true}, "name": "bn_conv1", "class_name": "BatchNormalization"}, {"inbound_nodes": [[["bn_conv1", 0, 0, {}]]], "config": {"trainable": false, "name": "activation_1", "activation": "relu"}, "name": "activation_1", "class_name": "Activation"}, {"inbound_nodes": [[["activation_1", 0, 0, {}]]], "config": {"strides": [2, 2], "data_format": "channels_last", "name": "max_pooling2d_1", "padding": "valid", "trainable": false, "pool_size": [3, 3]}, "name": "max_pooling2d_1", "class_name": "MaxPooling2D"}, {"inbound_nodes": [[["max_pooling2d_1", 0, 0, {}]]], "config": {"kernel_regularizer": null, "strides": [1, 1], "kernel_initializer": {"config": {"seed": null, "distribution": "normal", "scale": 2.0, "mode": "fan_in"}, "class_name": "VarianceScaling"}, "bias_regularizer": null, "padding": "valid", "activation": "linear", "use_bias": true, "dilation_rate": [1, 1], "bias_initializer": {"config": {}, "class_name": "Zeros"}, "activity_regularizer": null, "name": "res2a_branch2a", "kernel_size": [1, 1], "data_format": "channels_last", "trainable": false, "kernel_constraint": null, "bias_constraint": null, "filters": 64}, "name": "res2a_branch2a", "class_name": "Conv2D"}, {"inbound_nodes": [[["res2a_branch2a", 0, 0, {}]]], "config": {"center": true, "beta_regularizer": null, "momentum": 0.99, "gamma_regularizer": null, "gamma_constraint": null, "moving_variance_initializer": {"config": {}, "class_name": "Ones"}, "beta_constraint": null, "axis": 3, "beta_initializer": {"config": {}, "class_name": "Zeros"}, "name": "bn2a_branch2a", "moving_mean_initializer": {"config": {}, "class_name": "Zeros"}, "epsilon": 0.001, "trainable": false, "gamma_initializer": {"config": {}, "class_name": "Ones"}, "scale": true}, "name": "bn2a_branch2a", "class_name": "BatchNormalization"}, {"inbound_nodes": [[["bn2a_branch2a", 0, 0, {}]]], "config": {"trainable": false, "name": "activation_2", "activation": "relu"}, "name": "activation_2", "class_name": "Activation"}, {"inbound_nodes": [[["activation_2", 0, 0, {}]]], "config": {"kernel_regularizer": null, "strides": [1, 1], "kernel_initializer": {"config": {"seed": null, "distribution": "normal", "scale": 2.0, "mode": "fan_in"}, "class_name": "VarianceScaling"}, "bias_regularizer": null, "padding": "same", "activation": "linear", "use_bias": true, "dilation_rate": [1, 1], "bias_initializer": {"config": {}, "class_name": "Zeros"}, "activity_regularizer": null, "name": "res2a_branch2b", "kernel_size": [3, 3], "data_format": "channels_last", "trainable": false, "kernel_constraint": null, "bias_constraint": null, "filters": 64}, "name": "res2a_branch2b", "class_name": "Conv2D"}, {"inbound_nodes": [[["res2a_branch2b", 0, 0, {}]]], "config": {"center": true, "beta_regularizer": null, "momentum": 0.99, "gamma_regularizer": null, "gamma_constraint": null, "moving_variance_initializer": {"config": {}, "class_name": "Ones"}, "beta_constraint": null, "axis": 3, "beta_initializer": {"config": {}, "class_name": "Zeros"}, "name": "bn2a_branch2b", "moving_mean_initializer": {"config": {}, "class_name": "Zeros"}, "epsilon": 0.001, "trainable": false, "gamma_initializer": {"config": {}, "class_name": "Ones"}, "scale": true}, "name": "bn2a_branch2b", "class_name": "BatchNormalization"}, {"inbound_nodes": [[["bn2a_branch2b", 0, 0, {}]]], "config": {"trainable": false, "name": "activation_3", "activation": "relu"}, "name": "activation_3", "class_name": "Activation"}, {"inbound_nodes": [[["activation_3", 0, 0, {}]]], "config": {"kernel_regularizer": null, "strides": [1, 1], "kernel_initializer": {"config": {"seed": null, "distribution": "normal", "scale": 2.0, "mode": "fan_in"}, "class_name": "VarianceScaling"}, "bias_regularizer": null, "padding": "valid", "activation": "linear", "use_bias": true, "dilation_rate": [1, 1], "bias_initializer": {"config": {}, "class_name": "Zeros"}, "activity_regularizer": null, "name": "res2a_branch2c", "kernel_size": [1, 1], "data_format": "channels_last", "trainable": false, "kernel_constraint": null, "bias_constraint": null, "filters": 256}, "name": "res2a_branch2c", "class_name": "Conv2D"}, {"inbound_nodes": [[["max_pooling2d_1", 0, 0, {}]]], "config": {"kernel_regularizer": null, "strides": [1, 1], "kernel_initializer": {"config": {"seed": null, "distribution": "normal", "scale": 2.0, "mode": "fan_in"}, "class_name": "VarianceScaling"}, "bias_regularizer": null, "padding": "valid", "activation": "linear", "use_bias": true, "dilation_rate": [1, 1], "bias_initializer": {"config": {}, "class_name": "Zeros"}, "activity_regularizer": null, "name": "res2a_branch1", "kernel_size": [1, 1], "data_format": "channels_last", "trainable": false, "kernel_constraint": null, "bias_constraint": null, "filters": 256}, "name": "res2a_branch1", "class_name": "Conv2D"}, {"inbound_nodes": [[["res2a_branch2c", 0, 0, {}]]], "config": {"center": true, "beta_regularizer": null, "momentum": 0.99, "gamma_regularizer": null, "gamma_constraint": null, "moving_variance_initializer": {"config": {}, "class_name": "Ones"}, "beta_constraint": null, "axis": 3, "beta_initializer": {"config": {}, "class_name": "Zeros"}, "name": "bn2a_branch2c", "moving_mean_initializer": {"config": {}, "class_name": "Zeros"}, "epsilon": 0.001, "trainable": false, "gamma_initializer": {"config": {}, "class_name": "Ones"}, "scale": true}, "name": "bn2a_branch2c", "class_name": "BatchNormalization"}, {"inbound_nodes": [[["res2a_branch1", 0, 0, {}]]], "config": {"center": true, "beta_regularizer": null, "momentum": 0.99, "gamma_regularizer": null, "gamma_constraint": null, "moving_variance_initializer": {"config": {}, "class_name": "Ones"}, "beta_constraint": null, "axis": 3, "beta_initializer": {"config": {}, "class_name": "Zeros"}, "name": "bn2a_branch1", "moving_mean_initializer": {"config": {}, "class_name": "Zeros"}, "epsilon": 0.001, "trainable": false, "gamma_initializer": {"config": {}, "class_name": "Ones"}, "scale": true}, "name": "bn2a_branch1", "class_name": "BatchNormalization"}, {"inbound_nodes": [[["bn2a_branch2c", 0, 0, {}], ["bn2a_branch1", 0, 0, {}]]], "config": {"name": "add_1", "trainable": false}, "name": "add_1", "class_name": "Add"}, {"inbound_nodes": [[["add_1", 0, 0, {}]]], "config": {"trainable": false, "name": "activation_4", "activation": "relu"}, "name": "activation_4", "class_name": "Activation"}, {"inbound_nodes": [[["activation_4", 0, 0, {}]]], "config": {"kernel_regularizer": null, "strides": [1, 1], "kernel_initializer": {"config": {"seed": null, "distribution": "normal", "scale": 2.0, "mode": "fan_in"}, "class_name": "VarianceScaling"}, "bias_regularizer": null, "padding": "valid", "activation": "linear", "use_bias": true, "dilation_rate": [1, 1], "bias_initializer": {"config": {}, "class_name": "Zeros"}, "activity_regularizer": null, "name": "res2b_branch2a", "kernel_size": [1, 1], "data_format": "channels_last", "trainable": false, "kernel_constraint": null, "bias_constraint": null, "filters": 64}, "name": "res2b_branch2a", "class_name": "Conv2D"}, {"inbound_nodes": [[["res2b_branch2a", 0, 0, {}]]], "config": {"center": true, "beta_regularizer": null, "momentum": 0.99, "gamma_regularizer": null, "gamma_constraint": null, "moving_variance_initializer": {"config": {}, "class_name": "Ones"}, "beta_constraint": null, "axis": 3, "beta_initializer": {"config": {}, "class_name": "Zeros"}, "name": "bn2b_branch2a", "moving_mean_initializer": {"config": {}, "class_name": "Zeros"}, "epsilon": 0.001, "trainable": false, "gamma_initializer": {"config": {}, "class_name": "Ones"}, "scale": true}, "name": "bn2b_branch2a", "class_name": "BatchNormalization"}, {"inbound_nodes": [[["bn2b_branch2a", 0, 0, {}]]], "config": {"trainable": false, "name": "activation_5", "activation": "relu"}, "name": "activation_5", "class_name": "Activation"}, {"inbound_nodes": [[["activation_5", 0, 0, {}]]], "config": {"kernel_regularizer": null, "strides": [1, 1], "kernel_initializer": {"config": {"seed": null, "distribution": "normal", "scale": 2.0, "mode": "fan_in"}, "class_name": "VarianceScaling"}, "bias_regularizer": null, "padding": "same", "activation": "linear", "use_bias": true, "dilation_rate": [1, 1], "bias_initializer": {"config": {}, "class_name": "Zeros"}, "activity_regularizer": null, "name": "res2b_branch2b", "kernel_size": [3, 3], "data_format": "channels_last", "trainable": false, "kernel_constraint": null, "bias_constraint": null, "filters": 64}, "name": "res2b_branch2b", "class_name": "Conv2D"}, {"inbound_nodes": [[["res2b_branch2b", 0, 0, {}]]], "config": {"center": true, "beta_regularizer": null, "momentum": 0.99, "gamma_regularizer": null, "gamma_constraint": null, "moving_variance_initializer": {"config": {}, "class_name": "Ones"}, "beta_constraint": null, "axis": 3, "beta_initializer": {"config": {}, "class_name": "Zeros"}, "name": "bn2b_branch2b", "moving_mean_initializer": {"config": {}, "class_name": "Zeros"}, "epsilon": 0.001, "trainable": false, "gamma_initializer": {"config": {}, "class_name": "Ones"}, "scale": true}, "name": "bn2b_branch2b", "class_name": "BatchNormalization"}, {"inbound_nodes": [[["bn2b_branch2b", 0, 0, {}]]], "config": {"trainable": false, "name": "activation_6", "activation": "relu"}, "name": "activation_6", "class_name": "Activation"}, {"inbound_nodes": [[["activation_6", 0, 0, {}]]], "config": {"kernel_regularizer": null, "strides": [1, 1], "kernel_initializer": {"config": {"seed": null, "distribution": "normal", "scale": 2.0, "mode": "fan_in"}, "class_name": "VarianceScaling"}, "bias_regularizer": null, "padding": "valid", "activation": "linear", "use_bias": true, "dilation_rate": [1, 1], "bias_initializer": {"config": {}, "class_name": "Zeros"}, "activity_regularizer": null, "name": "res2b_branch2c", "kernel_size": [1, 1], "data_format": "channels_last", "trainable": false, "kernel_constraint": null, "bias_constraint": null, "filters": 256}, "name": "res2b_branch2c", "class_name": "Conv2D"}, {"inbound_nodes": [[["res2b_branch2c", 0, 0, {}]]], "config": {"center": true, "beta_regularizer": null, "momentum": 0.99, "gamma_regularizer": null, "gamma_constraint": null, "moving_variance_initializer": {"config": {}, "class_name": "Ones"}, "beta_constraint": null, "axis": 3, "beta_initializer": {"config": {}, "class_name": "Zeros"}, "name": "bn2b_branch2c", "moving_mean_initializer": {"config": {}, "class_name": "Zeros"}, "epsilon": 0.001, "trainable": false, "gamma_initializer": {"config": {}, "class_name": "Ones"}, "scale": true}, "name": "bn2b_branch2c", "class_name": "BatchNormalization"}, {"inbound_nodes": [[["bn2b_branch2c", 0, 0, {}], ["activation_4", 0, 0, {}]]], "config": {"name": "add_2", "trainable": false}, "name": "add_2", "class_name": "Add"}, {"inbound_nodes": [[["add_2", 0, 0, {}]]], "config": {"trainable": false, "name": "activation_7", "activation": "relu"}, "name": "activation_7", "class_name": "Activation"}, {"inbound_nodes": [[["activation_7", 0, 0, {}]]], "config": {"kernel_regularizer": null, "strides": [1, 1], "kernel_initializer": {"config": {"seed": null, "distribution": "normal", "scale": 2.0, "mode": "fan_in"}, "class_name": "VarianceScaling"}, "bias_regularizer": null, "padding": "valid", "activation": "linear", "use_bias": true, "dilation_rate": [1, 1], "bias_initializer": {"config": {}, "class_name": "Zeros"}, "activity_regularizer": null, "name": "res2c_branch2a", "kernel_size": [1, 1], "data_format": "channels_last", "trainable": false, "kernel_constraint": null, "bias_constraint": null, "filters": 64}, "name": "res2c_branch2a", "class_name": "Conv2D"}, {"inbound_nodes": [[["res2c_branch2a", 0, 0, {}]]], "config": {"center": true, "beta_regularizer": null, "momentum": 0.99, "gamma_regularizer": null, "gamma_constraint": null, "moving_variance_initializer": {"config": {}, "class_name": "Ones"}, "beta_constraint": null, "axis": 3, "beta_initializer": {"config": {}, "class_name": "Zeros"}, "name": "bn2c_branch2a", "moving_mean_initializer": {"config": {}, "class_name": "Zeros"}, "epsilon": 0.001, "trainable": false, "gamma_initializer": {"config": {}, "class_name": "Ones"}, "scale": true}, "name": "bn2c_branch2a", "class_name": "BatchNormalization"}, {"inbound_nodes": [[["bn2c_branch2a", 0, 0, {}]]], "config": {"trainable": false, "name": "activation_8", "activation": "relu"}, "name": "activation_8", "class_name": "Activation"}, {"inbound_nodes": [[["activation_8", 0, 0, {}]]], "config": {"kernel_regularizer": null, "strides": [1, 1], "kernel_initializer": {"config": {"seed": null, "distribution": "normal", "scale": 2.0, "mode": "fan_in"}, "class_name": "VarianceScaling"}, "bias_regularizer": null, "padding": "same", "activation": "linear", "use_bias": true, "dilation_rate": [1, 1], "bias_initializer": {"config": {}, "class_name": "Zeros"}, "activity_regularizer": null, "name": "res2c_branch2b", "kernel_size": [3, 3], "data_format": "channels_last", "trainable": false, "kernel_constraint": null, "bias_constraint": null, "filters": 64}, "name": "res2c_branch2b", "class_name": "Conv2D"}, {"inbound_nodes": [[["res2c_branch2b", 0, 0, {}]]], "config": {"center": true, "beta_regularizer": null, "momentum": 0.99, "gamma_regularizer": null, "gamma_constraint": null, "moving_variance_initializer": {"config": {}, "class_name": "Ones"}, "beta_constraint": null, "axis": 3, "beta_initializer": {"config": {}, "class_name": "Zeros"}, "name": "bn2c_branch2b", "moving_mean_initializer": {"config": {}, "class_name": "Zeros"}, "epsilon": 0.001, "trainable": false, "gamma_initializer": {"config": {}, "class_name": "Ones"}, "scale": true}, "name": "bn2c_branch2b", "class_name": "BatchNormalization"}, {"inbound_nodes": [[["bn2c_branch2b", 0, 0, {}]]], "config": {"trainable": false, "name": "activation_9", "activation": "relu"}, "name": "activation_9", "class_name": "Activation"}, {"inbound_nodes": [[["activation_9", 0, 0, {}]]], "config": {"kernel_regularizer": null, "strides": [1, 1], "kernel_initializer": {"config": {"seed": null, "distribution": "normal", "scale": 2.0, "mode": "fan_in"}, "class_name": "VarianceScaling"}, "bias_regularizer": null, "padding": "valid", "activation": "linear", "use_bias": true, "dilation_rate": [1, 1], "bias_initializer": {"config": {}, "class_name": "Zeros"}, "activity_regularizer": null, "name": "res2c_branch2c", "kernel_size": [1, 1], "data_format": "channels_last", "trainable": false, "kernel_constraint": null, "bias_constraint": null, "filters": 256}, "name": "res2c_branch2c", "class_name": "Conv2D"}, {"inbound_nodes": [[["res2c_branch2c", 0, 0, {}]]], "config": {"center": true, "beta_regularizer": null, "momentum": 0.99, "gamma_regularizer": null, "gamma_constraint": null, "moving_variance_initializer": {"config": {}, "class_name": "Ones"}, "beta_constraint": null, "axis": 3, "beta_initializer": {"config": {}, "class_name": "Zeros"}, "name": "bn2c_branch2c", "moving_mean_initializer": {"config": {}, "class_name": "Zeros"}, "epsilon": 0.001, "trainable": false, "gamma_initializer": {"config": {}, "class_name": "Ones"}, "scale": true}, "name": "bn2c_branch2c", "class_name": "BatchNormalization"}, {"inbound_nodes": [[["bn2c_branch2c", 0, 0, {}], ["activation_7", 0, 0, {}]]], "config": {"name": "add_3", "trainable": false}, "name": "add_3", "class_name": "Add"}, {"inbound_nodes": [[["add_3", 0, 0, {}]]], "config": {"trainable": false, "name": "activation_10", "activation": "relu"}, "name": "activation_10", "class_name": "Activation"}, {"inbound_nodes": [[["activation_10", 0, 0, {}]]], "config": {"kernel_regularizer": null, "strides": [2, 2], "kernel_initializer": {"config": {"seed": null, "distribution": "normal", "scale": 2.0, "mode": "fan_in"}, "class_name": "VarianceScaling"}, "bias_regularizer": null, "padding": "valid", "activation": "linear", "use_bias": true, "dilation_rate": [1, 1], "bias_initializer": {"config": {}, "class_name": "Zeros"}, "activity_regularizer": null, "name": "res3a_branch2a", "kernel_size": [1, 1], "data_format": "channels_last", "trainable": false, "kernel_constraint": null, "bias_constraint": null, "filters": 128}, "name": "res3a_branch2a", "class_name": "Conv2D"}, {"inbound_nodes": [[["res3a_branch2a", 0, 0, {}]]], "config": {"center": true, "beta_regularizer": null, "momentum": 0.99, "gamma_regularizer": null, "gamma_constraint": null, "moving_variance_initializer": {"config": {}, "class_name": "Ones"}, "beta_constraint": null, "axis": 3, "beta_initializer": {"config": {}, "class_name": "Zeros"}, "name": "bn3a_branch2a", "moving_mean_initializer": {"config": {}, "class_name": "Zeros"}, "epsilon": 0.001, "trainable": false, "gamma_initializer": {"config": {}, "class_name": "Ones"}, "scale": true}, "name": "bn3a_branch2a", "class_name": "BatchNormalization"}, {"inbound_nodes": [[["bn3a_branch2a", 0, 0, {}]]], "config": {"trainable": false, "name": "activation_11", "activation": "relu"}, "name": "activation_11", "class_name": "Activation"}, {"inbound_nodes": [[["activation_11", 0, 0, {}]]], "config": {"kernel_regularizer": null, "strides": [1, 1], "kernel_initializer": {"config": {"seed": null, "distribution": "normal", "scale": 2.0, "mode": "fan_in"}, "class_name": "VarianceScaling"}, "bias_regularizer": null, "padding": "same", "activation": "linear", "use_bias": true, "dilation_rate": [1, 1], "bias_initializer": {"config": {}, "class_name": "Zeros"}, "activity_regularizer": null, "name": "res3a_branch2b", "kernel_size": [3, 3], "data_format": "channels_last", "trainable": false, "kernel_constraint": null, "bias_constraint": null, "filters": 128}, "name": "res3a_branch2b", "class_name": "Conv2D"}, {"inbound_nodes": [[["res3a_branch2b", 0, 0, {}]]], "config": {"center": true, "beta_regularizer": null, "momentum": 0.99, "gamma_regularizer": null, "gamma_constraint": null, "moving_variance_initializer": {"config": {}, "class_name": "Ones"}, "beta_constraint": null, "axis": 3, "beta_initializer": {"config": {}, "class_name": "Zeros"}, "name": "bn3a_branch2b", "moving_mean_initializer": {"config": {}, "class_name": "Zeros"}, "epsilon": 0.001, "trainable": false, "gamma_initializer": {"config": {}, "class_name": "Ones"}, "scale": true}, "name": "bn3a_branch2b", "class_name": "BatchNormalization"}, {"inbound_nodes": [[["bn3a_branch2b", 0, 0, {}]]], "config": {"trainable": false, "name": "activation_12", "activation": "relu"}, "name": "activation_12", "class_name": "Activation"}, {"inbound_nodes": [[["activation_12", 0, 0, {}]]], "config": {"kernel_regularizer": null, "strides": [1, 1], "kernel_initializer": {"config": {"seed": null, "distribution": "normal", "scale": 2.0, "mode": "fan_in"}, "class_name": "VarianceScaling"}, "bias_regularizer": null, "padding": "valid", "activation": "linear", "use_bias": true, "dilation_rate": [1, 1], "bias_initializer": {"config": {}, "class_name": "Zeros"}, "activity_regularizer": null, "name": "res3a_branch2c", "kernel_size": [1, 1], "data_format": "channels_last", "trainable": false, "kernel_constraint": null, "bias_constraint": null, "filters": 512}, "name": "res3a_branch2c", "class_name": "Conv2D"}, {"inbound_nodes": [[["activation_10", 0, 0, {}]]], "config": {"kernel_regularizer": null, "strides": [2, 2], "kernel_initializer": {"config": {"seed": null, "distribution": "normal", "scale": 2.0, "mode": "fan_in"}, "class_name": "VarianceScaling"}, "bias_regularizer": null, "padding": "valid", "activation": "linear", "use_bias": true, "dilation_rate": [1, 1], "bias_initializer": {"config": {}, "class_name": "Zeros"}, "activity_regularizer": null, "name": "res3a_branch1", "kernel_size": [1, 1], "data_format": "channels_last", "trainable": false, "kernel_constraint": null, "bias_constraint": null, "filters": 512}, "name": "res3a_branch1", "class_name": "Conv2D"}, {"inbound_nodes": [[["res3a_branch2c", 0, 0, {}]]], "config": {"center": true, "beta_regularizer": null, "momentum": 0.99, "gamma_regularizer": null, "gamma_constraint": null, "moving_variance_initializer": {"config": {}, "class_name": "Ones"}, "beta_constraint": null, "axis": 3, "beta_initializer": {"config": {}, "class_name": "Zeros"}, "name": "bn3a_branch2c", "moving_mean_initializer": {"config": {}, "class_name": "Zeros"}, "epsilon": 0.001, "trainable": false, "gamma_initializer": {"config": {}, "class_name": "Ones"}, "scale": true}, "name": "bn3a_branch2c", "class_name": "BatchNormalization"}, {"inbound_nodes": [[["res3a_branch1", 0, 0, {}]]], "config": {"center": true, "beta_regularizer": null, "momentum": 0.99, "gamma_regularizer": null, "gamma_constraint": null, "moving_variance_initializer": {"config": {}, "class_name": "Ones"}, "beta_constraint": null, "axis": 3, "beta_initializer": {"config": {}, "class_name": "Zeros"}, "name": "bn3a_branch1", "moving_mean_initializer": {"config": {}, "class_name": "Zeros"}, "epsilon": 0.001, "trainable": false, "gamma_initializer": {"config": {}, "class_name": "Ones"}, "scale": true}, "name": "bn3a_branch1", "class_name": "BatchNormalization"}, {"inbound_nodes": [[["bn3a_branch2c", 0, 0, {}], ["bn3a_branch1", 0, 0, {}]]], "config": {"name": "add_4", "trainable": false}, "name": "add_4", "class_name": "Add"}, {"inbound_nodes": [[["add_4", 0, 0, {}]]], "config": {"trainable": false, "name": "activation_13", "activation": "relu"}, "name": "activation_13", "class_name": "Activation"}, {"inbound_nodes": [[["activation_13", 0, 0, {}]]], "config": {"kernel_regularizer": null, "strides": [1, 1], "kernel_initializer": {"config": {"seed": null, "distribution": "normal", "scale": 2.0, "mode": "fan_in"}, "class_name": "VarianceScaling"}, "bias_regularizer": null, "padding": "valid", "activation": "linear", "use_bias": true, "dilation_rate": [1, 1], "bias_initializer": {"config": {}, "class_name": "Zeros"}, "activity_regularizer": null, "name": "res3b_branch2a", "kernel_size": [1, 1], "data_format": "channels_last", "trainable": false, "kernel_constraint": null, "bias_constraint": null, "filters": 128}, "name": "res3b_branch2a", "class_name": "Conv2D"}, {"inbound_nodes": [[["res3b_branch2a", 0, 0, {}]]], "config": {"center": true, "beta_regularizer": null, "momentum": 0.99, "gamma_regularizer": null, "gamma_constraint": null, "moving_variance_initializer": {"config": {}, "class_name": "Ones"}, "beta_constraint": null, "axis": 3, "beta_initializer": {"config": {}, "class_name": "Zeros"}, "name": "bn3b_branch2a", "moving_mean_initializer": {"config": {}, "class_name": "Zeros"}, "epsilon": 0.001, "trainable": false, "gamma_initializer": {"config": {}, "class_name": "Ones"}, "scale": true}, "name": "bn3b_branch2a", "class_name": "BatchNormalization"}, {"inbound_nodes": [[["bn3b_branch2a", 0, 0, {}]]], "config": {"trainable": false, "name": "activation_14", "activation": "relu"}, "name": "activation_14", "class_name": "Activation"}, {"inbound_nodes": [[["activation_14", 0, 0, {}]]], "config": {"kernel_regularizer": null, "strides": [1, 1], "kernel_initializer": {"config": {"seed": null, "distribution": "normal", "scale": 2.0, "mode": "fan_in"}, "class_name": "VarianceScaling"}, "bias_regularizer": null, "padding": "same", "activation": "linear", "use_bias": true, "dilation_rate": [1, 1], "bias_initializer": {"config": {}, "class_name": "Zeros"}, "activity_regularizer": null, "name": "res3b_branch2b", "kernel_size": [3, 3], "data_format": "channels_last", "trainable": false, "kernel_constraint": null, "bias_constraint": null, "filters": 128}, "name": "res3b_branch2b", "class_name": "Conv2D"}, {"inbound_nodes": [[["res3b_branch2b", 0, 0, {}]]], "config": {"center": true, "beta_regularizer": null, "momentum": 0.99, "gamma_regularizer": null, "gamma_constraint": null, "moving_variance_initializer": {"config": {}, "class_name": "Ones"}, "beta_constraint": null, "axis": 3, "beta_initializer": {"config": {}, "class_name": "Zeros"}, "name": "bn3b_branch2b", "moving_mean_initializer": {"config": {}, "class_name": "Zeros"}, "epsilon": 0.001, "trainable": false, "gamma_initializer": {"config": {}, "class_name": "Ones"}, "scale": true}, "name": "bn3b_branch2b", "class_name": "BatchNormalization"}, {"inbound_nodes": [[["bn3b_branch2b", 0, 0, {}]]], "config": {"trainable": false, "name": "activation_15", "activation": "relu"}, "name": "activation_15", "class_name": "Activation"}, {"inbound_nodes": [[["activation_15", 0, 0, {}]]], "config": {"kernel_regularizer": null, "strides": [1, 1], "kernel_initializer": {"config": {"seed": null, "distribution": "normal", "scale": 2.0, "mode": "fan_in"}, "class_name": "VarianceScaling"}, "bias_regularizer": null, "padding": "valid", "activation": "linear", "use_bias": true, "dilation_rate": [1, 1], "bias_initializer": {"config": {}, "class_name": "Zeros"}, "activity_regularizer": null, "name": "res3b_branch2c", "kernel_size": [1, 1], "data_format": "channels_last", "trainable": false, "kernel_constraint": null, "bias_constraint": null, "filters": 512}, "name": "res3b_branch2c", "class_name": "Conv2D"}, {"inbound_nodes": [[["res3b_branch2c", 0, 0, {}]]], "config": {"center": true, "beta_regularizer": null, "momentum": 0.99, "gamma_regularizer": null, "gamma_constraint": null, "moving_variance_initializer": {"config": {}, "class_name": "Ones"}, "beta_constraint": null, "axis": 3, "beta_initializer": {"config": {}, "class_name": "Zeros"}, "name": "bn3b_branch2c", "moving_mean_initializer": {"config": {}, "class_name": "Zeros"}, "epsilon": 0.001, "trainable": false, "gamma_initializer": {"config": {}, "class_name": "Ones"}, "scale": true}, "name": "bn3b_branch2c", "class_name": "BatchNormalization"}, {"inbound_nodes": [[["bn3b_branch2c", 0, 0, {}], ["activation_13", 0, 0, {}]]], "config": {"name": "add_5", "trainable": false}, "name": "add_5", "class_name": "Add"}, {"inbound_nodes": [[["add_5", 0, 0, {}]]], "config": {"trainable": false, "name": "activation_16", "activation": "relu"}, "name": "activation_16", "class_name": "Activation"}, {"inbound_nodes": [[["activation_16", 0, 0, {}]]], "config": {"kernel_regularizer": null, "strides": [1, 1], "kernel_initializer": {"config": {"seed": null, "distribution": "normal", "scale": 2.0, "mode": "fan_in"}, "class_name": "VarianceScaling"}, "bias_regularizer": null, "padding": "valid", "activation": "linear", "use_bias": true, "dilation_rate": [1, 1], "bias_initializer": {"config": {}, "class_name": "Zeros"}, "activity_regularizer": null, "name": "res3c_branch2a", "kernel_size": [1, 1], "data_format": "channels_last", "trainable": false, "kernel_constraint": null, "bias_constraint": null, "filters": 128}, "name": "res3c_branch2a", "class_name": "Conv2D"}, {"inbound_nodes": [[["res3c_branch2a", 0, 0, {}]]], "config": {"center": true, "beta_regularizer": null, "momentum": 0.99, "gamma_regularizer": null, "gamma_constraint": null, "moving_variance_initializer": {"config": {}, "class_name": "Ones"}, "beta_constraint": null, "axis": 3, "beta_initializer": {"config": {}, "class_name": "Zeros"}, "name": "bn3c_branch2a", "moving_mean_initializer": {"config": {}, "class_name": "Zeros"}, "epsilon": 0.001, "trainable": false, "gamma_initializer": {"config": {}, "class_name": "Ones"}, "scale": true}, "name": "bn3c_branch2a", "class_name": "BatchNormalization"}, {"inbound_nodes": [[["bn3c_branch2a", 0, 0, {}]]], "config": {"trainable": false, "name": "activation_17", "activation": "relu"}, "name": "activation_17", "class_name": "Activation"}, {"inbound_nodes": [[["activation_17", 0, 0, {}]]], "config": {"kernel_regularizer": null, "strides": [1, 1], "kernel_initializer": {"config": {"seed": null, "distribution": "normal", "scale": 2.0, "mode": "fan_in"}, "class_name": "VarianceScaling"}, "bias_regularizer": null, "padding": "same", "activation": "linear", "use_bias": true, "dilation_rate": [1, 1], "bias_initializer": {"config": {}, "class_name": "Zeros"}, "activity_regularizer": null, "name": "res3c_branch2b", "kernel_size": [3, 3], "data_format": "channels_last", "trainable": false, "kernel_constraint": null, "bias_constraint": null, "filters": 128}, "name": "res3c_branch2b", "class_name": "Conv2D"}, {"inbound_nodes": [[["res3c_branch2b", 0, 0, {}]]], "config": {"center": true, "beta_regularizer": null, "momentum": 0.99, "gamma_regularizer": null, "gamma_constraint": null, "moving_variance_initializer": {"config": {}, "class_name": "Ones"}, "beta_constraint": null, "axis": 3, "beta_initializer": {"config": {}, "class_name": "Zeros"}, "name": "bn3c_branch2b", "moving_mean_initializer": {"config": {}, "class_name": "Zeros"}, "epsilon": 0.001, "trainable": false, "gamma_initializer": {"config": {}, "class_name": "Ones"}, "scale": true}, "name": "bn3c_branch2b", "class_name": "BatchNormalization"}, {"inbound_nodes": [[["bn3c_branch2b", 0, 0, {}]]], "config": {"trainable": false, "name": "activation_18", "activation": "relu"}, "name": "activation_18", "class_name": "Activation"}, {"inbound_nodes": [[["activation_18", 0, 0, {}]]], "config": {"kernel_regularizer": null, "strides": [1, 1], "kernel_initializer": {"config": {"seed": null, "distribution": "normal", "scale": 2.0, "mode": "fan_in"}, "class_name": "VarianceScaling"}, "bias_regularizer": null, "padding": "valid", "activation": "linear", "use_bias": true, "dilation_rate": [1, 1], "bias_initializer": {"config": {}, "class_name": "Zeros"}, "activity_regularizer": null, "name": "res3c_branch2c", "kernel_size": [1, 1], "data_format": "channels_last", "trainable": false, "kernel_constraint": null, "bias_constraint": null, "filters": 512}, "name": "res3c_branch2c", "class_name": "Conv2D"}, {"inbound_nodes": [[["res3c_branch2c", 0, 0, {}]]], "config": {"center": true, "beta_regularizer": null, "momentum": 0.99, "gamma_regularizer": null, "gamma_constraint": null, "moving_variance_initializer": {"config": {}, "class_name": "Ones"}, "beta_constraint": null, "axis": 3, "beta_initializer": {"config": {}, "class_name": "Zeros"}, "name": "bn3c_branch2c", "moving_mean_initializer": {"config": {}, "class_name": "Zeros"}, "epsilon": 0.001, "trainable": false, "gamma_initializer": {"config": {}, "class_name": "Ones"}, "scale": true}, "name": "bn3c_branch2c", "class_name": "BatchNormalization"}, {"inbound_nodes": [[["bn3c_branch2c", 0, 0, {}], ["activation_16", 0, 0, {}]]], "config": {"name": "add_6", "trainable": false}, "name": "add_6", "class_name": "Add"}, {"inbound_nodes": [[["add_6", 0, 0, {}]]], "config": {"trainable": false, "name": "activation_19", "activation": "relu"}, "name": "activation_19", "class_name": "Activation"}, {"inbound_nodes": [[["activation_19", 0, 0, {}]]], "config": {"kernel_regularizer": null, "strides": [1, 1], "kernel_initializer": {"config": {"seed": null, "distribution": "normal", "scale": 2.0, "mode": "fan_in"}, "class_name": "VarianceScaling"}, "bias_regularizer": null, "padding": "valid", "activation": "linear", "use_bias": true, "dilation_rate": [1, 1], "bias_initializer": {"config": {}, "class_name": "Zeros"}, "activity_regularizer": null, "name": "res3d_branch2a", "kernel_size": [1, 1], "data_format": "channels_last", "trainable": false, "kernel_constraint": null, "bias_constraint": null, "filters": 128}, "name": "res3d_branch2a", "class_name": "Conv2D"}, {"inbound_nodes": [[["res3d_branch2a", 0, 0, {}]]], "config": {"center": true, "beta_regularizer": null, "momentum": 0.99, "gamma_regularizer": null, "gamma_constraint": null, "moving_variance_initializer": {"config": {}, "class_name": "Ones"}, "beta_constraint": null, "axis": 3, "beta_initializer": {"config": {}, "class_name": "Zeros"}, "name": "bn3d_branch2a", "moving_mean_initializer": {"config": {}, "class_name": "Zeros"}, "epsilon": 0.001, "trainable": false, "gamma_initializer": {"config": {}, "class_name": "Ones"}, "scale": true}, "name": "bn3d_branch2a", "class_name": "BatchNormalization"}, {"inbound_nodes": [[["bn3d_branch2a", 0, 0, {}]]], "config": {"trainable": false, "name": "activation_20", "activation": "relu"}, "name": "activation_20", "class_name": "Activation"}, {"inbound_nodes": [[["activation_20", 0, 0, {}]]], "config": {"kernel_regularizer": null, "strides": [1, 1], "kernel_initializer": {"config": {"seed": null, "distribution": "normal", "scale": 2.0, "mode": "fan_in"}, "class_name": "VarianceScaling"}, "bias_regularizer": null, "padding": "same", "activation": "linear", "use_bias": true, "dilation_rate": [1, 1], "bias_initializer": {"config": {}, "class_name": "Zeros"}, "activity_regularizer": null, "name": "res3d_branch2b", "kernel_size": [3, 3], "data_format": "channels_last", "trainable": false, "kernel_constraint": null, "bias_constraint": null, "filters": 128}, "name": "res3d_branch2b", "class_name": "Conv2D"}, {"inbound_nodes": [[["res3d_branch2b", 0, 0, {}]]], "config": {"center": true, "beta_regularizer": null, "momentum": 0.99, "gamma_regularizer": null, "gamma_constraint": null, "moving_variance_initializer": {"config": {}, "class_name": "Ones"}, "beta_constraint": null, "axis": 3, "beta_initializer": {"config": {}, "class_name": "Zeros"}, "name": "bn3d_branch2b", "moving_mean_initializer": {"config": {}, "class_name": "Zeros"}, "epsilon": 0.001, "trainable": false, "gamma_initializer": {"config": {}, "class_name": "Ones"}, "scale": true}, "name": "bn3d_branch2b", "class_name": "BatchNormalization"}, {"inbound_nodes": [[["bn3d_branch2b", 0, 0, {}]]], "config": {"trainable": false, "name": "activation_21", "activation": "relu"}, "name": "activation_21", "class_name": "Activation"}, {"inbound_nodes": [[["activation_21", 0, 0, {}]]], "config": {"kernel_regularizer": null, "strides": [1, 1], "kernel_initializer": {"config": {"seed": null, "distribution": "normal", "scale": 2.0, "mode": "fan_in"}, "class_name": "VarianceScaling"}, "bias_regularizer": null, "padding": "valid", "activation": "linear", "use_bias": true, "dilation_rate": [1, 1], "bias_initializer": {"config": {}, "class_name": "Zeros"}, "activity_regularizer": null, "name": "res3d_branch2c", "kernel_size": [1, 1], "data_format": "channels_last", "trainable": false, "kernel_constraint": null, "bias_constraint": null, "filters": 512}, "name": "res3d_branch2c", "class_name": "Conv2D"}, {"inbound_nodes": [[["res3d_branch2c", 0, 0, {}]]], "config": {"center": true, "beta_regularizer": null, "momentum": 0.99, "gamma_regularizer": null, "gamma_constraint": null, "moving_variance_initializer": {"config": {}, "class_name": "Ones"}, "beta_constraint": null, "axis": 3, "beta_initializer": {"config": {}, "class_name": "Zeros"}, "name": "bn3d_branch2c", "moving_mean_initializer": {"config": {}, "class_name": "Zeros"}, "epsilon": 0.001, "trainable": false, "gamma_initializer": {"config": {}, "class_name": "Ones"}, "scale": true}, "name": "bn3d_branch2c", "class_name": "BatchNormalization"}, {"inbound_nodes": [[["bn3d_branch2c", 0, 0, {}], ["activation_19", 0, 0, {}]]], "config": {"name": "add_7", "trainable": false}, "name": "add_7", "class_name": "Add"}, {"inbound_nodes": [[["add_7", 0, 0, {}]]], "config": {"trainable": false, "name": "activation_22", "activation": "relu"}, "name": "activation_22", "class_name": "Activation"}, {"inbound_nodes": [[["activation_22", 0, 0, {}]]], "config": {"kernel_regularizer": null, "strides": [2, 2], "kernel_initializer": {"config": {"seed": null, "distribution": "normal", "scale": 2.0, "mode": "fan_in"}, "class_name": "VarianceScaling"}, "bias_regularizer": null, "padding": "valid", "activation": "linear", "use_bias": true, "dilation_rate": [1, 1], "bias_initializer": {"config": {}, "class_name": "Zeros"}, "activity_regularizer": null, "name": "res4a_branch2a", "kernel_size": [1, 1], "data_format": "channels_last", "trainable": false, "kernel_constraint": null, "bias_constraint": null, "filters": 256}, "name": "res4a_branch2a", "class_name": "Conv2D"}, {"inbound_nodes": [[["res4a_branch2a", 0, 0, {}]]], "config": {"center": true, "beta_regularizer": null, "momentum": 0.99, "gamma_regularizer": null, "gamma_constraint": null, "moving_variance_initializer": {"config": {}, "class_name": "Ones"}, "beta_constraint": null, "axis": 3, "beta_initializer": {"config": {}, "class_name": "Zeros"}, "name": "bn4a_branch2a", "moving_mean_initializer": {"config": {}, "class_name": "Zeros"}, "epsilon": 0.001, "trainable": false, "gamma_initializer": {"config": {}, "class_name": "Ones"}, "scale": true}, "name": "bn4a_branch2a", "class_name": "BatchNormalization"}, {"inbound_nodes": [[["bn4a_branch2a", 0, 0, {}]]], "config": {"trainable": false, "name": "activation_23", "activation": "relu"}, "name": "activation_23", "class_name": "Activation"}, {"inbound_nodes": [[["activation_23", 0, 0, {}]]], "config": {"kernel_regularizer": null, "strides": [1, 1], "kernel_initializer": {"config": {"seed": null, "distribution": "normal", "scale": 2.0, "mode": "fan_in"}, "class_name": "VarianceScaling"}, "bias_regularizer": null, "padding": "same", "activation": "linear", "use_bias": true, "dilation_rate": [1, 1], "bias_initializer": {"config": {}, "class_name": "Zeros"}, "activity_regularizer": null, "name": "res4a_branch2b", "kernel_size": [3, 3], "data_format": "channels_last", "trainable": false, "kernel_constraint": null, "bias_constraint": null, "filters": 256}, "name": "res4a_branch2b", "class_name": "Conv2D"}, {"inbound_nodes": [[["res4a_branch2b", 0, 0, {}]]], "config": {"center": true, "beta_regularizer": null, "momentum": 0.99, "gamma_regularizer": null, "gamma_constraint": null, "moving_variance_initializer": {"config": {}, "class_name": "Ones"}, "beta_constraint": null, "axis": 3, "beta_initializer": {"config": {}, "class_name": "Zeros"}, "name": "bn4a_branch2b", "moving_mean_initializer": {"config": {}, "class_name": "Zeros"}, "epsilon": 0.001, "trainable": false, "gamma_initializer": {"config": {}, "class_name": "Ones"}, "scale": true}, "name": "bn4a_branch2b", "class_name": "BatchNormalization"}, {"inbound_nodes": [[["bn4a_branch2b", 0, 0, {}]]], "config": {"trainable": false, "name": "activation_24", "activation": "relu"}, "name": "activation_24", "class_name": "Activation"}, {"inbound_nodes": [[["activation_24", 0, 0, {}]]], "config": {"kernel_regularizer": null, "strides": [1, 1], "kernel_initializer": {"config": {"seed": null, "distribution": "normal", "scale": 2.0, "mode": "fan_in"}, "class_name": "VarianceScaling"}, "bias_regularizer": null, "padding": "valid", "activation": "linear", "use_bias": true, "dilation_rate": [1, 1], "bias_initializer": {"config": {}, "class_name": "Zeros"}, "activity_regularizer": null, "name": "res4a_branch2c", "kernel_size": [1, 1], "data_format": "channels_last", "trainable": false, "kernel_constraint": null, "bias_constraint": null, "filters": 1024}, "name": "res4a_branch2c", "class_name": "Conv2D"}, {"inbound_nodes": [[["activation_22", 0, 0, {}]]], "config": {"kernel_regularizer": null, "strides": [2, 2], "kernel_initializer": {"config": {"seed": null, "distribution": "normal", "scale": 2.0, "mode": "fan_in"}, "class_name": "VarianceScaling"}, "bias_regularizer": null, "padding": "valid", "activation": "linear", "use_bias": true, "dilation_rate": [1, 1], "bias_initializer": {"config": {}, "class_name": "Zeros"}, "activity_regularizer": null, "name": "res4a_branch1", "kernel_size": [1, 1], "data_format": "channels_last", "trainable": false, "kernel_constraint": null, "bias_constraint": null, "filters": 1024}, "name": "res4a_branch1", "class_name": "Conv2D"}, {"inbound_nodes": [[["res4a_branch2c", 0, 0, {}]]], "config": {"center": true, "beta_regularizer": null, "momentum": 0.99, "gamma_regularizer": null, "gamma_constraint": null, "moving_variance_initializer": {"config": {}, "class_name": "Ones"}, "beta_constraint": null, "axis": 3, "beta_initializer": {"config": {}, "class_name": "Zeros"}, "name": "bn4a_branch2c", "moving_mean_initializer": {"config": {}, "class_name": "Zeros"}, "epsilon": 0.001, "trainable": false, "gamma_initializer": {"config": {}, "class_name": "Ones"}, "scale": true}, "name": "bn4a_branch2c", "class_name": "BatchNormalization"}, {"inbound_nodes": [[["res4a_branch1", 0, 0, {}]]], "config": {"center": true, "beta_regularizer": null, "momentum": 0.99, "gamma_regularizer": null, "gamma_constraint": null, "moving_variance_initializer": {"config": {}, "class_name": "Ones"}, "beta_constraint": null, "axis": 3, "beta_initializer": {"config": {}, "class_name": "Zeros"}, "name": "bn4a_branch1", "moving_mean_initializer": {"config": {}, "class_name": "Zeros"}, "epsilon": 0.001, "trainable": false, "gamma_initializer": {"config": {}, "class_name": "Ones"}, "scale": true}, "name": "bn4a_branch1", "class_name": "BatchNormalization"}, {"inbound_nodes": [[["bn4a_branch2c", 0, 0, {}], ["bn4a_branch1", 0, 0, {}]]], "config": {"name": "add_8", "trainable": false}, "name": "add_8", "class_name": "Add"}, {"inbound_nodes": [[["add_8", 0, 0, {}]]], "config": {"trainable": false, "name": "activation_25", "activation": "relu"}, "name": "activation_25", "class_name": "Activation"}, {"inbound_nodes": [[["activation_25", 0, 0, {}]]], "config": {"kernel_regularizer": null, "strides": [1, 1], "kernel_initializer": {"config": {"seed": null, "distribution": "normal", "scale": 2.0, "mode": "fan_in"}, "class_name": "VarianceScaling"}, "bias_regularizer": null, "padding": "valid", "activation": "linear", "use_bias": true, "dilation_rate": [1, 1], "bias_initializer": {"config": {}, "class_name": "Zeros"}, "activity_regularizer": null, "name": "res4b_branch2a", "kernel_size": [1, 1], "data_format": "channels_last", "trainable": false, "kernel_constraint": null, "bias_constraint": null, "filters": 256}, "name": "res4b_branch2a", "class_name": "Conv2D"}, {"inbound_nodes": [[["res4b_branch2a", 0, 0, {}]]], "config": {"center": true, "beta_regularizer": null, "momentum": 0.99, "gamma_regularizer": null, "gamma_constraint": null, "moving_variance_initializer": {"config": {}, "class_name": "Ones"}, "beta_constraint": null, "axis": 3, "beta_initializer": {"config": {}, "class_name": "Zeros"}, "name": "bn4b_branch2a", "moving_mean_initializer": {"config": {}, "class_name": "Zeros"}, "epsilon": 0.001, "trainable": false, "gamma_initializer": {"config": {}, "class_name": "Ones"}, "scale": true}, "name": "bn4b_branch2a", "class_name": "BatchNormalization"}, {"inbound_nodes": [[["bn4b_branch2a", 0, 0, {}]]], "config": {"trainable": false, "name": "activation_26", "activation": "relu"}, "name": "activation_26", "class_name": "Activation"}, {"inbound_nodes": [[["activation_26", 0, 0, {}]]], "config": {"kernel_regularizer": null, "strides": [1, 1], "kernel_initializer": {"config": {"seed": null, "distribution": "normal", "scale": 2.0, "mode": "fan_in"}, "class_name": "VarianceScaling"}, "bias_regularizer": null, "padding": "same", "activation": "linear", "use_bias": true, "dilation_rate": [1, 1], "bias_initializer": {"config": {}, "class_name": "Zeros"}, "activity_regularizer": null, "name": "res4b_branch2b", "kernel_size": [3, 3], "data_format": "channels_last", "trainable": false, "kernel_constraint": null, "bias_constraint": null, "filters": 256}, "name": "res4b_branch2b", "class_name": "Conv2D"}, {"inbound_nodes": [[["res4b_branch2b", 0, 0, {}]]], "config": {"center": true, "beta_regularizer": null, "momentum": 0.99, "gamma_regularizer": null, "gamma_constraint": null, "moving_variance_initializer": {"config": {}, "class_name": "Ones"}, "beta_constraint": null, "axis": 3, "beta_initializer": {"config": {}, "class_name": "Zeros"}, "name": "bn4b_branch2b", "moving_mean_initializer": {"config": {}, "class_name": "Zeros"}, "epsilon": 0.001, "trainable": false, "gamma_initializer": {"config": {}, "class_name": "Ones"}, "scale": true}, "name": "bn4b_branch2b", "class_name": "BatchNormalization"}, {"inbound_nodes": [[["bn4b_branch2b", 0, 0, {}]]], "config": {"trainable": false, "name": "activation_27", "activation": "relu"}, "name": "activation_27", "class_name": "Activation"}, {"inbound_nodes": [[["activation_27", 0, 0, {}]]], "config": {"kernel_regularizer": null, "strides": [1, 1], "kernel_initializer": {"config": {"seed": null, "distribution": "normal", "scale": 2.0, "mode": "fan_in"}, "class_name": "VarianceScaling"}, "bias_regularizer": null, "padding": "valid", "activation": "linear", "use_bias": true, "dilation_rate": [1, 1], "bias_initializer": {"config": {}, "class_name": "Zeros"}, "activity_regularizer": null, "name": "res4b_branch2c", "kernel_size": [1, 1], "data_format": "channels_last", "trainable": false, "kernel_constraint": null, "bias_constraint": null, "filters": 1024}, "name": "res4b_branch2c", "class_name": "Conv2D"}, {"inbound_nodes": [[["res4b_branch2c", 0, 0, {}]]], "config": {"center": true, "beta_regularizer": null, "momentum": 0.99, "gamma_regularizer": null, "gamma_constraint": null, "moving_variance_initializer": {"config": {}, "class_name": "Ones"}, "beta_constraint": null, "axis": 3, "beta_initializer": {"config": {}, "class_name": "Zeros"}, "name": "bn4b_branch2c", "moving_mean_initializer": {"config": {}, "class_name": "Zeros"}, "epsilon": 0.001, "trainable": false, "gamma_initializer": {"config": {}, "class_name": "Ones"}, "scale": true}, "name": "bn4b_branch2c", "class_name": "BatchNormalization"}, {"inbound_nodes": [[["bn4b_branch2c", 0, 0, {}], ["activation_25", 0, 0, {}]]], "config": {"name": "add_9", "trainable": false}, "name": "add_9", "class_name": "Add"}, {"inbound_nodes": [[["add_9", 0, 0, {}]]], "config": {"trainable": false, "name": "activation_28", "activation": "relu"}, "name": "activation_28", "class_name": "Activation"}, {"inbound_nodes": [[["activation_28", 0, 0, {}]]], "config": {"kernel_regularizer": null, "strides": [1, 1], "kernel_initializer": {"config": {"seed": null, "distribution": "normal", "scale": 2.0, "mode": "fan_in"}, "class_name": "VarianceScaling"}, "bias_regularizer": null, "padding": "valid", "activation": "linear", "use_bias": true, "dilation_rate": [1, 1], "bias_initializer": {"config": {}, "class_name": "Zeros"}, "activity_regularizer": null, "name": "res4c_branch2a", "kernel_size": [1, 1], "data_format": "channels_last", "trainable": false, "kernel_constraint": null, "bias_constraint": null, "filters": 256}, "name": "res4c_branch2a", "class_name": "Conv2D"}, {"inbound_nodes": [[["res4c_branch2a", 0, 0, {}]]], "config": {"center": true, "beta_regularizer": null, "momentum": 0.99, "gamma_regularizer": null, "gamma_constraint": null, "moving_variance_initializer": {"config": {}, "class_name": "Ones"}, "beta_constraint": null, "axis": 3, "beta_initializer": {"config": {}, "class_name": "Zeros"}, "name": "bn4c_branch2a", "moving_mean_initializer": {"config": {}, "class_name": "Zeros"}, "epsilon": 0.001, "trainable": false, "gamma_initializer": {"config": {}, "class_name": "Ones"}, "scale": true}, "name": "bn4c_branch2a", "class_name": "BatchNormalization"}, {"inbound_nodes": [[["bn4c_branch2a", 0, 0, {}]]], "config": {"trainable": false, "name": "activation_29", "activation": "relu"}, "name": "activation_29", "class_name": "Activation"}, {"inbound_nodes": [[["activation_29", 0, 0, {}]]], "config": {"kernel_regularizer": null, "strides": [1, 1], "kernel_initializer": {"config": {"seed": null, "distribution": "normal", "scale": 2.0, "mode": "fan_in"}, "class_name": "VarianceScaling"}, "bias_regularizer": null, "padding": "same", "activation": "linear", "use_bias": true, "dilation_rate": [1, 1], "bias_initializer": {"config": {}, "class_name": "Zeros"}, "activity_regularizer": null, "name": "res4c_branch2b", "kernel_size": [3, 3], "data_format": "channels_last", "trainable": false, "kernel_constraint": null, "bias_constraint": null, "filters": 256}, "name": "res4c_branch2b", "class_name": "Conv2D"}, {"inbound_nodes": [[["res4c_branch2b", 0, 0, {}]]], "config": {"center": true, "beta_regularizer": null, "momentum": 0.99, "gamma_regularizer": null, "gamma_constraint": null, "moving_variance_initializer": {"config": {}, "class_name": "Ones"}, "beta_constraint": null, "axis": 3, "beta_initializer": {"config": {}, "class_name": "Zeros"}, "name": "bn4c_branch2b", "moving_mean_initializer": {"config": {}, "class_name": "Zeros"}, "epsilon": 0.001, "trainable": false, "gamma_initializer": {"config": {}, "class_name": "Ones"}, "scale": true}, "name": "bn4c_branch2b", "class_name": "BatchNormalization"}, {"inbound_nodes": [[["bn4c_branch2b", 0, 0, {}]]], "config": {"trainable": false, "name": "activation_30", "activation": "relu"}, "name": "activation_30", "class_name": "Activation"}, {"inbound_nodes": [[["activation_30", 0, 0, {}]]], "config": {"kernel_regularizer": null, "strides": [1, 1], "kernel_initializer": {"config": {"seed": null, "distribution": "normal", "scale": 2.0, "mode": "fan_in"}, "class_name": "VarianceScaling"}, "bias_regularizer": null, "padding": "valid", "activation": "linear", "use_bias": true, "dilation_rate": [1, 1], "bias_initializer": {"config": {}, "class_name": "Zeros"}, "activity_regularizer": null, "name": "res4c_branch2c", "kernel_size": [1, 1], "data_format": "channels_last", "trainable": false, "kernel_constraint": null, "bias_constraint": null, "filters": 1024}, "name": "res4c_branch2c", "class_name": "Conv2D"}, {"inbound_nodes": [[["res4c_branch2c", 0, 0, {}]]], "config": {"center": true, "beta_regularizer": null, "momentum": 0.99, "gamma_regularizer": null, "gamma_constraint": null, "moving_variance_initializer": {"config": {}, "class_name": "Ones"}, "beta_constraint": null, "axis": 3, "beta_initializer": {"config": {}, "class_name": "Zeros"}, "name": "bn4c_branch2c", "moving_mean_initializer": {"config": {}, "class_name": "Zeros"}, "epsilon": 0.001, "trainable": false, "gamma_initializer": {"config": {}, "class_name": "Ones"}, "scale": true}, "name": "bn4c_branch2c", "class_name": "BatchNormalization"}, {"inbound_nodes": [[["bn4c_branch2c", 0, 0, {}], ["activation_28", 0, 0, {}]]], "config": {"name": "add_10", "trainable": false}, "name": "add_10", "class_name": "Add"}, {"inbound_nodes": [[["add_10", 0, 0, {}]]], "config": {"trainable": false, "name": "activation_31", "activation": "relu"}, "name": "activation_31", "class_name": "Activation"}, {"inbound_nodes": [[["activation_31", 0, 0, {}]]], "config": {"kernel_regularizer": null, "strides": [1, 1], "kernel_initializer": {"config": {"seed": null, "distribution": "normal", "scale": 2.0, "mode": "fan_in"}, "class_name": "VarianceScaling"}, "bias_regularizer": null, "padding": "valid", "activation": "linear", "use_bias": true, "dilation_rate": [1, 1], "bias_initializer": {"config": {}, "class_name": "Zeros"}, "activity_regularizer": null, "name": "res4d_branch2a", "kernel_size": [1, 1], "data_format": "channels_last", "trainable": false, "kernel_constraint": null, "bias_constraint": null, "filters": 256}, "name": "res4d_branch2a", "class_name": "Conv2D"}, {"inbound_nodes": [[["res4d_branch2a", 0, 0, {}]]], "config": {"center": true, "beta_regularizer": null, "momentum": 0.99, "gamma_regularizer": null, "gamma_constraint": null, "moving_variance_initializer": {"config": {}, "class_name": "Ones"}, "beta_constraint": null, "axis": 3, "beta_initializer": {"config": {}, "class_name": "Zeros"}, "name": "bn4d_branch2a", "moving_mean_initializer": {"config": {}, "class_name": "Zeros"}, "epsilon": 0.001, "trainable": false, "gamma_initializer": {"config": {}, "class_name": "Ones"}, "scale": true}, "name": "bn4d_branch2a", "class_name": "BatchNormalization"}, {"inbound_nodes": [[["bn4d_branch2a", 0, 0, {}]]], "config": {"trainable": false, "name": "activation_32", "activation": "relu"}, "name": "activation_32", "class_name": "Activation"}, {"inbound_nodes": [[["activation_32", 0, 0, {}]]], "config": {"kernel_regularizer": null, "strides": [1, 1], "kernel_initializer": {"config": {"seed": null, "distribution": "normal", "scale": 2.0, "mode": "fan_in"}, "class_name": "VarianceScaling"}, "bias_regularizer": null, "padding": "same", "activation": "linear", "use_bias": true, "dilation_rate": [1, 1], "bias_initializer": {"config": {}, "class_name": "Zeros"}, "activity_regularizer": null, "name": "res4d_branch2b", "kernel_size": [3, 3], "data_format": "channels_last", "trainable": false, "kernel_constraint": null, "bias_constraint": null, "filters": 256}, "name": "res4d_branch2b", "class_name": "Conv2D"}, {"inbound_nodes": [[["res4d_branch2b", 0, 0, {}]]], "config": {"center": true, "beta_regularizer": null, "momentum": 0.99, "gamma_regularizer": null, "gamma_constraint": null, "moving_variance_initializer": {"config": {}, "class_name": "Ones"}, "beta_constraint": null, "axis": 3, "beta_initializer": {"config": {}, "class_name": "Zeros"}, "name": "bn4d_branch2b", "moving_mean_initializer": {"config": {}, "class_name": "Zeros"}, "epsilon": 0.001, "trainable": false, "gamma_initializer": {"config": {}, "class_name": "Ones"}, "scale": true}, "name": "bn4d_branch2b", "class_name": "BatchNormalization"}, {"inbound_nodes": [[["bn4d_branch2b", 0, 0, {}]]], "config": {"trainable": false, "name": "activation_33", "activation": "relu"}, "name": "activation_33", "class_name": "Activation"}, {"inbound_nodes": [[["activation_33", 0, 0, {}]]], "config": {"kernel_regularizer": null, "strides": [1, 1], "kernel_initializer": {"config": {"seed": null, "distribution": "normal", "scale": 2.0, "mode": "fan_in"}, "class_name": "VarianceScaling"}, "bias_regularizer": null, "padding": "valid", "activation": "linear", "use_bias": true, "dilation_rate": [1, 1], "bias_initializer": {"config": {}, "class_name": "Zeros"}, "activity_regularizer": null, "name": "res4d_branch2c", "kernel_size": [1, 1], "data_format": "channels_last", "trainable": false, "kernel_constraint": null, "bias_constraint": null, "filters": 1024}, "name": "res4d_branch2c", "class_name": "Conv2D"}, {"inbound_nodes": [[["res4d_branch2c", 0, 0, {}]]], "config": {"center": true, "beta_regularizer": null, "momentum": 0.99, "gamma_regularizer": null, "gamma_constraint": null, "moving_variance_initializer": {"config": {}, "class_name": "Ones"}, "beta_constraint": null, "axis": 3, "beta_initializer": {"config": {}, "class_name": "Zeros"}, "name": "bn4d_branch2c", "moving_mean_initializer": {"config": {}, "class_name": "Zeros"}, "epsilon": 0.001, "trainable": false, "gamma_initializer": {"config": {}, "class_name": "Ones"}, "scale": true}, "name": "bn4d_branch2c", "class_name": "BatchNormalization"}, {"inbound_nodes": [[["bn4d_branch2c", 0, 0, {}], ["activation_31", 0, 0, {}]]], "config": {"name": "add_11", "trainable": false}, "name": "add_11", "class_name": "Add"}, {"inbound_nodes": [[["add_11", 0, 0, {}]]], "config": {"trainable": false, "name": "activation_34", "activation": "relu"}, "name": "activation_34", "class_name": "Activation"}, {"inbound_nodes": [[["activation_34", 0, 0, {}]]], "config": {"kernel_regularizer": null, "strides": [1, 1], "kernel_initializer": {"config": {"seed": null, "distribution": "normal", "scale": 2.0, "mode": "fan_in"}, "class_name": "VarianceScaling"}, "bias_regularizer": null, "padding": "valid", "activation": "linear", "use_bias": true, "dilation_rate": [1, 1], "bias_initializer": {"config": {}, "class_name": "Zeros"}, "activity_regularizer": null, "name": "res4e_branch2a", "kernel_size": [1, 1], "data_format": "channels_last", "trainable": false, "kernel_constraint": null, "bias_constraint": null, "filters": 256}, "name": "res4e_branch2a", "class_name": "Conv2D"}, {"inbound_nodes": [[["res4e_branch2a", 0, 0, {}]]], "config": {"center": true, "beta_regularizer": null, "momentum": 0.99, "gamma_regularizer": null, "gamma_constraint": null, "moving_variance_initializer": {"config": {}, "class_name": "Ones"}, "beta_constraint": null, "axis": 3, "beta_initializer": {"config": {}, "class_name": "Zeros"}, "name": "bn4e_branch2a", "moving_mean_initializer": {"config": {}, "class_name": "Zeros"}, "epsilon": 0.001, "trainable": false, "gamma_initializer": {"config": {}, "class_name": "Ones"}, "scale": true}, "name": "bn4e_branch2a", "class_name": "BatchNormalization"}, {"inbound_nodes": [[["bn4e_branch2a", 0, 0, {}]]], "config": {"trainable": false, "name": "activation_35", "activation": "relu"}, "name": "activation_35", "class_name": "Activation"}, {"inbound_nodes": [[["activation_35", 0, 0, {}]]], "config": {"kernel_regularizer": null, "strides": [1, 1], "kernel_initializer": {"config": {"seed": null, "distribution": "normal", "scale": 2.0, "mode": "fan_in"}, "class_name": "VarianceScaling"}, "bias_regularizer": null, "padding": "same", "activation": "linear", "use_bias": true, "dilation_rate": [1, 1], "bias_initializer": {"config": {}, "class_name": "Zeros"}, "activity_regularizer": null, "name": "res4e_branch2b", "kernel_size": [3, 3], "data_format": "channels_last", "trainable": false, "kernel_constraint": null, "bias_constraint": null, "filters": 256}, "name": "res4e_branch2b", "class_name": "Conv2D"}, {"inbound_nodes": [[["res4e_branch2b", 0, 0, {}]]], "config": {"center": true, "beta_regularizer": null, "momentum": 0.99, "gamma_regularizer": null, "gamma_constraint": null, "moving_variance_initializer": {"config": {}, "class_name": "Ones"}, "beta_constraint": null, "axis": 3, "beta_initializer": {"config": {}, "class_name": "Zeros"}, "name": "bn4e_branch2b", "moving_mean_initializer": {"config": {}, "class_name": "Zeros"}, "epsilon": 0.001, "trainable": false, "gamma_initializer": {"config": {}, "class_name": "Ones"}, "scale": true}, "name": "bn4e_branch2b", "class_name": "BatchNormalization"}, {"inbound_nodes": [[["bn4e_branch2b", 0, 0, {}]]], "config": {"trainable": false, "name": "activation_36", "activation": "relu"}, "name": "activation_36", "class_name": "Activation"}, {"inbound_nodes": [[["activation_36", 0, 0, {}]]], "config": {"kernel_regularizer": null, "strides": [1, 1], "kernel_initializer": {"config": {"seed": null, "distribution": "normal", "scale": 2.0, "mode": "fan_in"}, "class_name": "VarianceScaling"}, "bias_regularizer": null, "padding": "valid", "activation": "linear", "use_bias": true, "dilation_rate": [1, 1], "bias_initializer": {"config": {}, "class_name": "Zeros"}, "activity_regularizer": null, "name": "res4e_branch2c", "kernel_size": [1, 1], "data_format": "channels_last", "trainable": false, "kernel_constraint": null, "bias_constraint": null, "filters": 1024}, "name": "res4e_branch2c", "class_name": "Conv2D"}, {"inbound_nodes": [[["res4e_branch2c", 0, 0, {}]]], "config": {"center": true, "beta_regularizer": null, "momentum": 0.99, "gamma_regularizer": null, "gamma_constraint": null, "moving_variance_initializer": {"config": {}, "class_name": "Ones"}, "beta_constraint": null, "axis": 3, "beta_initializer": {"config": {}, "class_name": "Zeros"}, "name": "bn4e_branch2c", "moving_mean_initializer": {"config": {}, "class_name": "Zeros"}, "epsilon": 0.001, "trainable": false, "gamma_initializer": {"config": {}, "class_name": "Ones"}, "scale": true}, "name": "bn4e_branch2c", "class_name": "BatchNormalization"}, {"inbound_nodes": [[["bn4e_branch2c", 0, 0, {}], ["activation_34", 0, 0, {}]]], "config": {"name": "add_12", "trainable": false}, "name": "add_12", "class_name": "Add"}, {"inbound_nodes": [[["add_12", 0, 0, {}]]], "config": {"trainable": false, "name": "activation_37", "activation": "relu"}, "name": "activation_37", "class_name": "Activation"}, {"inbound_nodes": [[["activation_37", 0, 0, {}]]], "config": {"kernel_regularizer": null, "strides": [1, 1], "kernel_initializer": {"config": {"seed": null, "distribution": "normal", "scale": 2.0, "mode": "fan_in"}, "class_name": "VarianceScaling"}, "bias_regularizer": null, "padding": "valid", "activation": "linear", "use_bias": true, "dilation_rate": [1, 1], "bias_initializer": {"config": {}, "class_name": "Zeros"}, "activity_regularizer": null, "name": "res4f_branch2a", "kernel_size": [1, 1], "data_format": "channels_last", "trainable": false, "kernel_constraint": null, "bias_constraint": null, "filters": 256}, "name": "res4f_branch2a", "class_name": "Conv2D"}, {"inbound_nodes": [[["res4f_branch2a", 0, 0, {}]]], "config": {"center": true, "beta_regularizer": null, "momentum": 0.99, "gamma_regularizer": null, "gamma_constraint": null, "moving_variance_initializer": {"config": {}, "class_name": "Ones"}, "beta_constraint": null, "axis": 3, "beta_initializer": {"config": {}, "class_name": "Zeros"}, "name": "bn4f_branch2a", "moving_mean_initializer": {"config": {}, "class_name": "Zeros"}, "epsilon": 0.001, "trainable": false, "gamma_initializer": {"config": {}, "class_name": "Ones"}, "scale": true}, "name": "bn4f_branch2a", "class_name": "BatchNormalization"}, {"inbound_nodes": [[["bn4f_branch2a", 0, 0, {}]]], "config": {"trainable": false, "name": "activation_38", "activation": "relu"}, "name": "activation_38", "class_name": "Activation"}, {"inbound_nodes": [[["activation_38", 0, 0, {}]]], "config": {"kernel_regularizer": null, "strides": [1, 1], "kernel_initializer": {"config": {"seed": null, "distribution": "normal", "scale": 2.0, "mode": "fan_in"}, "class_name": "VarianceScaling"}, "bias_regularizer": null, "padding": "same", "activation": "linear", "use_bias": true, "dilation_rate": [1, 1], "bias_initializer": {"config": {}, "class_name": "Zeros"}, "activity_regularizer": null, "name": "res4f_branch2b", "kernel_size": [3, 3], "data_format": "channels_last", "trainable": false, "kernel_constraint": null, "bias_constraint": null, "filters": 256}, "name": "res4f_branch2b", "class_name": "Conv2D"}, {"inbound_nodes": [[["res4f_branch2b", 0, 0, {}]]], "config": {"center": true, "beta_regularizer": null, "momentum": 0.99, "gamma_regularizer": null, "gamma_constraint": null, "moving_variance_initializer": {"config": {}, "class_name": "Ones"}, "beta_constraint": null, "axis": 3, "beta_initializer": {"config": {}, "class_name": "Zeros"}, "name": "bn4f_branch2b", "moving_mean_initializer": {"config": {}, "class_name": "Zeros"}, "epsilon": 0.001, "trainable": false, "gamma_initializer": {"config": {}, "class_name": "Ones"}, "scale": true}, "name": "bn4f_branch2b", "class_name": "BatchNormalization"}, {"inbound_nodes": [[["bn4f_branch2b", 0, 0, {}]]], "config": {"trainable": false, "name": "activation_39", "activation": "relu"}, "name": "activation_39", "class_name": "Activation"}, {"inbound_nodes": [[["activation_39", 0, 0, {}]]], "config": {"kernel_regularizer": null, "strides": [1, 1], "kernel_initializer": {"config": {"seed": null, "distribution": "normal", "scale": 2.0, "mode": "fan_in"}, "class_name": "VarianceScaling"}, "bias_regularizer": null, "padding": "valid", "activation": "linear", "use_bias": true, "dilation_rate": [1, 1], "bias_initializer": {"config": {}, "class_name": "Zeros"}, "activity_regularizer": null, "name": "res4f_branch2c", "kernel_size": [1, 1], "data_format": "channels_last", "trainable": false, "kernel_constraint": null, "bias_constraint": null, "filters": 1024}, "name": "res4f_branch2c", "class_name": "Conv2D"}, {"inbound_nodes": [[["res4f_branch2c", 0, 0, {}]]], "config": {"center": true, "beta_regularizer": null, "momentum": 0.99, "gamma_regularizer": null, "gamma_constraint": null, "moving_variance_initializer": {"config": {}, "class_name": "Ones"}, "beta_constraint": null, "axis": 3, "beta_initializer": {"config": {}, "class_name": "Zeros"}, "name": "bn4f_branch2c", "moving_mean_initializer": {"config": {}, "class_name": "Zeros"}, "epsilon": 0.001, "trainable": false, "gamma_initializer": {"config": {}, "class_name": "Ones"}, "scale": true}, "name": "bn4f_branch2c", "class_name": "BatchNormalization"}, {"inbound_nodes": [[["bn4f_branch2c", 0, 0, {}], ["activation_37", 0, 0, {}]]], "config": {"name": "add_13", "trainable": false}, "name": "add_13", "class_name": "Add"}, {"inbound_nodes": [[["add_13", 0, 0, {}]]], "config": {"trainable": false, "name": "activation_40", "activation": "relu"}, "name": "activation_40", "class_name": "Activation"}, {"inbound_nodes": [[["activation_40", 0, 0, {}]]], "config": {"kernel_regularizer": null, "strides": [2, 2], "kernel_initializer": {"config": {"seed": null, "distribution": "normal", "scale": 2.0, "mode": "fan_in"}, "class_name": "VarianceScaling"}, "bias_regularizer": null, "padding": "valid", "activation": "linear", "use_bias": true, "dilation_rate": [1, 1], "bias_initializer": {"config": {}, "class_name": "Zeros"}, "activity_regularizer": null, "name": "res5a_branch2a", "kernel_size": [1, 1], "data_format": "channels_last", "trainable": false, "kernel_constraint": null, "bias_constraint": null, "filters": 512}, "name": "res5a_branch2a", "class_name": "Conv2D"}, {"inbound_nodes": [[["res5a_branch2a", 0, 0, {}]]], "config": {"center": true, "beta_regularizer": null, "momentum": 0.99, "gamma_regularizer": null, "gamma_constraint": null, "moving_variance_initializer": {"config": {}, "class_name": "Ones"}, "beta_constraint": null, "axis": 3, "beta_initializer": {"config": {}, "class_name": "Zeros"}, "name": "bn5a_branch2a", "moving_mean_initializer": {"config": {}, "class_name": "Zeros"}, "epsilon": 0.001, "trainable": false, "gamma_initializer": {"config": {}, "class_name": "Ones"}, "scale": true}, "name": "bn5a_branch2a", "class_name": "BatchNormalization"}, {"inbound_nodes": [[["bn5a_branch2a", 0, 0, {}]]], "config": {"trainable": false, "name": "activation_41", "activation": "relu"}, "name": "activation_41", "class_name": "Activation"}, {"inbound_nodes": [[["activation_41", 0, 0, {}]]], "config": {"kernel_regularizer": null, "strides": [1, 1], "kernel_initializer": {"config": {"seed": null, "distribution": "normal", "scale": 2.0, "mode": "fan_in"}, "class_name": "VarianceScaling"}, "bias_regularizer": null, "padding": "same", "activation": "linear", "use_bias": true, "dilation_rate": [1, 1], "bias_initializer": {"config": {}, "class_name": "Zeros"}, "activity_regularizer": null, "name": "res5a_branch2b", "kernel_size": [3, 3], "data_format": "channels_last", "trainable": false, "kernel_constraint": null, "bias_constraint": null, "filters": 512}, "name": "res5a_branch2b", "class_name": "Conv2D"}, {"inbound_nodes": [[["res5a_branch2b", 0, 0, {}]]], "config": {"center": true, "beta_regularizer": null, "momentum": 0.99, "gamma_regularizer": null, "gamma_constraint": null, "moving_variance_initializer": {"config": {}, "class_name": "Ones"}, "beta_constraint": null, "axis": 3, "beta_initializer": {"config": {}, "class_name": "Zeros"}, "name": "bn5a_branch2b", "moving_mean_initializer": {"config": {}, "class_name": "Zeros"}, "epsilon": 0.001, "trainable": false, "gamma_initializer": {"config": {}, "class_name": "Ones"}, "scale": true}, "name": "bn5a_branch2b", "class_name": "BatchNormalization"}, {"inbound_nodes": [[["bn5a_branch2b", 0, 0, {}]]], "config": {"trainable": false, "name": "activation_42", "activation": "relu"}, "name": "activation_42", "class_name": "Activation"}, {"inbound_nodes": [[["activation_42", 0, 0, {}]]], "config": {"kernel_regularizer": null, "strides": [1, 1], "kernel_initializer": {"config": {"seed": null, "distribution": "normal", "scale": 2.0, "mode": "fan_in"}, "class_name": "VarianceScaling"}, "bias_regularizer": null, "padding": "valid", "activation": "linear", "use_bias": true, "dilation_rate": [1, 1], "bias_initializer": {"config": {}, "class_name": "Zeros"}, "activity_regularizer": null, "name": "res5a_branch2c", "kernel_size": [1, 1], "data_format": "channels_last", "trainable": false, "kernel_constraint": null, "bias_constraint": null, "filters": 2048}, "name": "res5a_branch2c", "class_name": "Conv2D"}, {"inbound_nodes": [[["activation_40", 0, 0, {}]]], "config": {"kernel_regularizer": null, "strides": [2, 2], "kernel_initializer": {"config": {"seed": null, "distribution": "normal", "scale": 2.0, "mode": "fan_in"}, "class_name": "VarianceScaling"}, "bias_regularizer": null, "padding": "valid", "activation": "linear", "use_bias": true, "dilation_rate": [1, 1], "bias_initializer": {"config": {}, "class_name": "Zeros"}, "activity_regularizer": null, "name": "res5a_branch1", "kernel_size": [1, 1], "data_format": "channels_last", "trainable": false, "kernel_constraint": null, "bias_constraint": null, "filters": 2048}, "name": "res5a_branch1", "class_name": "Conv2D"}, {"inbound_nodes": [[["res5a_branch2c", 0, 0, {}]]], "config": {"center": true, "beta_regularizer": null, "momentum": 0.99, "gamma_regularizer": null, "gamma_constraint": null, "moving_variance_initializer": {"config": {}, "class_name": "Ones"}, "beta_constraint": null, "axis": 3, "beta_initializer": {"config": {}, "class_name": "Zeros"}, "name": "bn5a_branch2c", "moving_mean_initializer": {"config": {}, "class_name": "Zeros"}, "epsilon": 0.001, "trainable": false, "gamma_initializer": {"config": {}, "class_name": "Ones"}, "scale": true}, "name": "bn5a_branch2c", "class_name": "BatchNormalization"}, {"inbound_nodes": [[["res5a_branch1", 0, 0, {}]]], "config": {"center": true, "beta_regularizer": null, "momentum": 0.99, "gamma_regularizer": null, "gamma_constraint": null, "moving_variance_initializer": {"config": {}, "class_name": "Ones"}, "beta_constraint": null, "axis": 3, "beta_initializer": {"config": {}, "class_name": "Zeros"}, "name": "bn5a_branch1", "moving_mean_initializer": {"config": {}, "class_name": "Zeros"}, "epsilon": 0.001, "trainable": false, "gamma_initializer": {"config": {}, "class_name": "Ones"}, "scale": true}, "name": "bn5a_branch1", "class_name": "BatchNormalization"}, {"inbound_nodes": [[["bn5a_branch2c", 0, 0, {}], ["bn5a_branch1", 0, 0, {}]]], "config": {"name": "add_14", "trainable": false}, "name": "add_14", "class_name": "Add"}, {"inbound_nodes": [[["add_14", 0, 0, {}]]], "config": {"trainable": false, "name": "activation_43", "activation": "relu"}, "name": "activation_43", "class_name": "Activation"}, {"inbound_nodes": [[["activation_43", 0, 0, {}]]], "config": {"kernel_regularizer": null, "strides": [1, 1], "kernel_initializer": {"config": {"seed": null, "distribution": "normal", "scale": 2.0, "mode": "fan_in"}, "class_name": "VarianceScaling"}, "bias_regularizer": null, "padding": "valid", "activation": "linear", "use_bias": true, "dilation_rate": [1, 1], "bias_initializer": {"config": {}, "class_name": "Zeros"}, "activity_regularizer": null, "name": "res5b_branch2a", "kernel_size": [1, 1], "data_format": "channels_last", "trainable": false, "kernel_constraint": null, "bias_constraint": null, "filters": 512}, "name": "res5b_branch2a", "class_name": "Conv2D"}, {"inbound_nodes": [[["res5b_branch2a", 0, 0, {}]]], "config": {"center": true, "beta_regularizer": null, "momentum": 0.99, "gamma_regularizer": null, "gamma_constraint": null, "moving_variance_initializer": {"config": {}, "class_name": "Ones"}, "beta_constraint": null, "axis": 3, "beta_initializer": {"config": {}, "class_name": "Zeros"}, "name": "bn5b_branch2a", "moving_mean_initializer": {"config": {}, "class_name": "Zeros"}, "epsilon": 0.001, "trainable": false, "gamma_initializer": {"config": {}, "class_name": "Ones"}, "scale": true}, "name": "bn5b_branch2a", "class_name": "BatchNormalization"}, {"inbound_nodes": [[["bn5b_branch2a", 0, 0, {}]]], "config": {"trainable": false, "name": "activation_44", "activation": "relu"}, "name": "activation_44", "class_name": "Activation"}, {"inbound_nodes": [[["activation_44", 0, 0, {}]]], "config": {"kernel_regularizer": null, "strides": [1, 1], "kernel_initializer": {"config": {"seed": null, "distribution": "normal", "scale": 2.0, "mode": "fan_in"}, "class_name": "VarianceScaling"}, "bias_regularizer": null, "padding": "same", "activation": "linear", "use_bias": true, "dilation_rate": [1, 1], "bias_initializer": {"config": {}, "class_name": "Zeros"}, "activity_regularizer": null, "name": "res5b_branch2b", "kernel_size": [3, 3], "data_format": "channels_last", "trainable": false, "kernel_constraint": null, "bias_constraint": null, "filters": 512}, "name": "res5b_branch2b", "class_name": "Conv2D"}, {"inbound_nodes": [[["res5b_branch2b", 0, 0, {}]]], "config": {"center": true, "beta_regularizer": null, "momentum": 0.99, "gamma_regularizer": null, "gamma_constraint": null, "moving_variance_initializer": {"config": {}, "class_name": "Ones"}, "beta_constraint": null, "axis": 3, "beta_initializer": {"config": {}, "class_name": "Zeros"}, "name": "bn5b_branch2b", "moving_mean_initializer": {"config": {}, "class_name": "Zeros"}, "epsilon": 0.001, "trainable": false, "gamma_initializer": {"config": {}, "class_name": "Ones"}, "scale": true}, "name": "bn5b_branch2b", "class_name": "BatchNormalization"}, {"inbound_nodes": [[["bn5b_branch2b", 0, 0, {}]]], "config": {"trainable": false, "name": "activation_45", "activation": "relu"}, "name": "activation_45", "class_name": "Activation"}, {"inbound_nodes": [[["activation_45", 0, 0, {}]]], "config": {"kernel_regularizer": null, "strides": [1, 1], "kernel_initializer": {"config": {"seed": null, "distribution": "normal", "scale": 2.0, "mode": "fan_in"}, "class_name": "VarianceScaling"}, "bias_regularizer": null, "padding": "valid", "activation": "linear", "use_bias": true, "dilation_rate": [1, 1], "bias_initializer": {"config": {}, "class_name": "Zeros"}, "activity_regularizer": null, "name": "res5b_branch2c", "kernel_size": [1, 1], "data_format": "channels_last", "trainable": false, "kernel_constraint": null, "bias_constraint": null, "filters": 2048}, "name": "res5b_branch2c", "class_name": "Conv2D"}, {"inbound_nodes": [[["res5b_branch2c", 0, 0, {}]]], "config": {"center": true, "beta_regularizer": null, "momentum": 0.99, "gamma_regularizer": null, "gamma_constraint": null, "moving_variance_initializer": {"config": {}, "class_name": "Ones"}, "beta_constraint": null, "axis": 3, "beta_initializer": {"config": {}, "class_name": "Zeros"}, "name": "bn5b_branch2c", "moving_mean_initializer": {"config": {}, "class_name": "Zeros"}, "epsilon": 0.001, "trainable": false, "gamma_initializer": {"config": {}, "class_name": "Ones"}, "scale": true}, "name": "bn5b_branch2c", "class_name": "BatchNormalization"}, {"inbound_nodes": [[["bn5b_branch2c", 0, 0, {}], ["activation_43", 0, 0, {}]]], "config": {"name": "add_15", "trainable": false}, "name": "add_15", "class_name": "Add"}, {"inbound_nodes": [[["add_15", 0, 0, {}]]], "config": {"trainable": false, "name": "activation_46", "activation": "relu"}, "name": "activation_46", "class_name": "Activation"}, {"inbound_nodes": [[["activation_46", 0, 0, {}]]], "config": {"kernel_regularizer": null, "strides": [1, 1], "kernel_initializer": {"config": {"seed": null, "distribution": "normal", "scale": 2.0, "mode": "fan_in"}, "class_name": "VarianceScaling"}, "bias_regularizer": null, "padding": "valid", "activation": "linear", "use_bias": true, "dilation_rate": [1, 1], "bias_initializer": {"config": {}, "class_name": "Zeros"}, "activity_regularizer": null, "name": "res5c_branch2a", "kernel_size": [1, 1], "data_format": "channels_last", "trainable": false, "kernel_constraint": null, "bias_constraint": null, "filters": 512}, "name": "res5c_branch2a", "class_name": "Conv2D"}, {"inbound_nodes": [[["res5c_branch2a", 0, 0, {}]]], "config": {"center": true, "beta_regularizer": null, "momentum": 0.99, "gamma_regularizer": null, "gamma_constraint": null, "moving_variance_initializer": {"config": {}, "class_name": "Ones"}, "beta_constraint": null, "axis": 3, "beta_initializer": {"config": {}, "class_name": "Zeros"}, "name": "bn5c_branch2a", "moving_mean_initializer": {"config": {}, "class_name": "Zeros"}, "epsilon": 0.001, "trainable": false, "gamma_initializer": {"config": {}, "class_name": "Ones"}, "scale": true}, "name": "bn5c_branch2a", "class_name": "BatchNormalization"}, {"inbound_nodes": [[["bn5c_branch2a", 0, 0, {}]]], "config": {"trainable": false, "name": "activation_47", "activation": "relu"}, "name": "activation_47", "class_name": "Activation"}, {"inbound_nodes": [[["activation_47", 0, 0, {}]]], "config": {"kernel_regularizer": null, "strides": [1, 1], "kernel_initializer": {"config": {"seed": null, "distribution": "normal", "scale": 2.0, "mode": "fan_in"}, "class_name": "VarianceScaling"}, "bias_regularizer": null, "padding": "same", "activation": "linear", "use_bias": true, "dilation_rate": [1, 1], "bias_initializer": {"config": {}, "class_name": "Zeros"}, "activity_regularizer": null, "name": "res5c_branch2b", "kernel_size": [3, 3], "data_format": "channels_last", "trainable": false, "kernel_constraint": null, "bias_constraint": null, "filters": 512}, "name": "res5c_branch2b", "class_name": "Conv2D"}, {"inbound_nodes": [[["res5c_branch2b", 0, 0, {}]]], "config": {"center": true, "beta_regularizer": null, "momentum": 0.99, "gamma_regularizer": null, "gamma_constraint": null, "moving_variance_initializer": {"config": {}, "class_name": "Ones"}, "beta_constraint": null, "axis": 3, "beta_initializer": {"config": {}, "class_name": "Zeros"}, "name": "bn5c_branch2b", "moving_mean_initializer": {"config": {}, "class_name": "Zeros"}, "epsilon": 0.001, "trainable": false, "gamma_initializer": {"config": {}, "class_name": "Ones"}, "scale": true}, "name": "bn5c_branch2b", "class_name": "BatchNormalization"}, {"inbound_nodes": [[["bn5c_branch2b", 0, 0, {}]]], "config": {"trainable": false, "name": "activation_48", "activation": "relu"}, "name": "activation_48", "class_name": "Activation"}, {"inbound_nodes": [[["activation_48", 0, 0, {}]]], "config": {"kernel_regularizer": null, "strides": [1, 1], "kernel_initializer": {"config": {"seed": null, "distribution": "normal", "scale": 2.0, "mode": "fan_in"}, "class_name": "VarianceScaling"}, "bias_regularizer": null, "padding": "valid", "activation": "linear", "use_bias": true, "dilation_rate": [1, 1], "bias_initializer": {"config": {}, "class_name": "Zeros"}, "activity_regularizer": null, "name": "res5c_branch2c", "kernel_size": [1, 1], "data_format": "channels_last", "trainable": false, "kernel_constraint": null, "bias_constraint": null, "filters": 2048}, "name": "res5c_branch2c", "class_name": "Conv2D"}, {"inbound_nodes": [[["res5c_branch2c", 0, 0, {}]]], "config": {"center": true, "beta_regularizer": null, "momentum": 0.99, "gamma_regularizer": null, "gamma_constraint": null, "moving_variance_initializer": {"config": {}, "class_name": "Ones"}, "beta_constraint": null, "axis": 3, "beta_initializer": {"config": {}, "class_name": "Zeros"}, "name": "bn5c_branch2c", "moving_mean_initializer": {"config": {}, "class_name": "Zeros"}, "epsilon": 0.001, "trainable": false, "gamma_initializer": {"config": {}, "class_name": "Ones"}, "scale": true}, "name": "bn5c_branch2c", "class_name": "BatchNormalization"}, {"inbound_nodes": [[["bn5c_branch2c", 0, 0, {}], ["activation_46", 0, 0, {}]]], "config": {"name": "add_16", "trainable": false}, "name": "add_16", "class_name": "Add"}, {"inbound_nodes": [[["add_16", 0, 0, {}]]], "config": {"trainable": false, "name": "activation_49", "activation": "relu"}, "name": "activation_49", "class_name": "Activation"}, {"inbound_nodes": [[["activation_49", 0, 0, {}]]], "config": {"strides": [7, 7], "data_format": "channels_last", "name": "avg_pool", "padding": "valid", "trainable": false, "pool_size": [7, 7]}, "name": "avg_pool", "class_name": "AveragePooling2D"}, {"inbound_nodes": [[["avg_pool", 0, 0, {}]]], "config": {"data_format": "channels_last", "trainable": false, "name": "flatten"}, "name": "flatten", "class_name": "Flatten"}, {"inbound_nodes": [[["flatten", 0, 0, {}]]], "config": {"kernel_regularizer": null, "kernel_initializer": {"config": {"seed": null, "distribution": "uniform", "scale": 1.0, "mode": "fan_avg"}, "class_name": "VarianceScaling"}, "bias_initializer": {"config": {}, "class_name": "Zeros"}, "activation": "softmax", "use_bias": true, "bias_constraint": null, "bias_regularizer": null, "activity_regularizer": null, "name": "output_layer", "units": 3, "trainable": true, "kernel_constraint": null}, "name": "output_layer", "class_name": "Dense"}]}, "backend": "tensorflow", "class_name": "Model"}